oysterclassify_net.pth (torch, 296591 bytes, 12 tensors)

conv1.weight f4 [6, 3, 5, 5]
-0.04132819 -0.070942156 0.03424857 -0.0172864 0.011276517 0.04783468 0.102459356 -0.11383188
0.010227693 -0.1146274 -0.0562662 -0.036764078 0.025965026 -0.08578798 0.019677076 0.051107347
-0.036457334 0.04790073 0.07441191 0.010795772 0.10957307 -0.06956331 -0.09181398 -0.09157559
0.025458341 -0.03063597 -0.027689472 -0.07333033 0.10821539 -0.011840857 -0.09756336 0.10377808
0.042601187 -0.10375251 0.07138765 0.020583922 -0.08479528 0.10340914 -0.1071947 0.08042606
0.019284762 -0.057515495 -0.09364152 0.08779071 -0.0340871 -0.052819908 -0.028302398 0.0599384
-0.003944342 -0.060821887 0.03550091 -0.053170566 -0.09422778 -0.014629837 0.09859701 -0.10415108
0.08977148 0.009695686 0.092847355 -0.033372138 0.029198183 -0.042668767 0.08791399 0.07334238
-0.1021784 0.08730435 -0.04867577 -0.012684196 0.109595545 -0.023222486 -0.088459134 -0.10401349
-0.009256751 -0.07040048 0.01780807 -0.061744925 -0.058499273 -0.0960409 -0.06387116 0.101207465
-0.0030915625 0.07999371 -0.08299429 0.006015149 -0.0067995796 -0.04062496 0.098925985 0.037423532
-0.01644337 0.109631956 0.030210797 -0.006129083 0.05381043 0.08858284 0.02417257 -0.036451496
-0.06937667 -0.029946553 -0.06304416 -0.05388012 -0.028599972 0.09895907 0.03828452 0.09205742
0.05866688 0.021937657 0.0007702254 0.0589182 -0.08503126 -0.10840683 -0.03445445 -0.0081638815
-0.014527803 -0.008283919 -0.027331421 -0.03763537 0.06690484 0.03580386 -0.11135641 -0.0644963
-0.10752641 -0.0005756864 -0.015064558 -0.10247607 -0.024769893 0.09982999 -0.016836902 0.0068753567
0.05745161 0.036320552 -0.04633536 0.05319525 0.02848413 0.013083832 0.019929424 0.031467438
-0.04595431 -0.035008788 0.03052238 -0.01371962 0.017522201 0.028065406 -0.096479736 0.06135016
0.067457 0.021172924 0.030451393 -0.06929815 0.111314684 -0.051563364 -0.023723321 0.031422608
0.099356115 0.020672733 -0.0032662796 -0.063229315 -0.047622308 0.04734972 -0.081018984 -0.038461987
-0.09799578 0.022303915 -0.040901195 0.08914627 -0.01338793 0.10437361 0.083531305 0.07793929
-0.015535818 0.109170675 -0.0066617173 -0.06526836 0.0181956 -0.06959987 -0.10874383 -0.05856094
-0.1142591 0.040069778 0.10166344 -0.10563268 -0.0010736552 -0.102575615 0.003268639 -0.09767558
-0.09184126 0.0732939 -0.10771428 0.008316547 0.061947268 -0.045802332 0.110221274 -0.087090015
-0.08842393 0.08952029 -0.062373303 0.03380065 0.012663332 0.017080024 -0.0068598543 -0.07270154
-0.01062623 -0.0010922127 0.10517753 -0.06629631 0.03030264 0.060338717 -0.11137277 0.06712004
0.039237276 -0.07398631 -0.003964977 -0.08454798 0.05128684 -0.026566878 0.079225354 0.07919627
-0.03797111 -0.063438416 -0.029069321 0.07223082 0.024088703 -0.005038312 -0.026291803 0.077117726
0.04588745 -0.10045047 0.06808457 0.056788705 0.06590186 -0.037694473 -0.09440296 -0.0023897525
-0.09475427 0.083410844 -0.105990246 -0.07761443 0.08870903 -0.019395925 -0.10460445 -0.061357643
0.093775176 -0.026897747 0.052683614 0.014678582 -0.043248594 -0.10480061 0.09968644 -0.017890388
0.022931179 -0.028945602 0.016525347 0.09056561 0.067482464 -0.0049975784 -0.033806276 0.00014285756
00000000: c047 29bd 1f4a 91bd 3b48 0c3d 359c 8dbc
00000010: 24c1 383c 4cee 433d 36d6 d13d b020 e9bd
00000020: 0e92 273c c5c1 eabd 6377 66bd ee95 16bd
00000030: 9bb4 d43c 9cb1 afbd d231 a13c f055 513d
00000040: 4954 15bd 8e33 443d 4565 983d c0e0 303c
00000050: d967 e03d 3577 8ebd f808 bcbd fc8b bbbd
00000060: 038e d03c 49f8 fabc 08d5 e2bc 362e 96bd
00000070: 08a0 dd3d 2700 42bc 4dcf c7bd 9a89 d43d
00000080: 957e 2e3d 327c d4bd b033 923d 9d9f a83c
00000090: 26a9 adbd 2cc8 d33d e588 dbbd 6bb6 a43d
000000a0: 14fb 9d3c 5e95 6bbd 20c7 bfbd 9ecb b33d
000000b0: ea9e 0bbd b059 58bd 6eda e7bc f881 753d
000000c0: 8a3f 81bb 5f20 79bd 6769 113d 61c9 59bd
000000d0: 7ffa c0bd fcb1 6fbc 3bed c93d 294d d5bd
000000e0: 1cda b73d a8da 1e3c c126 be3d 39b1 08bd
000000f0: 0731 ef3c 72c5 2ebd 400c b43d 8834 963d
00000100: e942 d1bd a0cc b23d 3f60 47bd 60d1 4fbc
00000110: a173 e03d 153d bebc 102a b5bd 0605 d5bd
00000120: a1a9 17bc 202e 90bd 3be2 913c 3fe8 7cbd
00000130: ef9c 6fbd 17b1 c4bd e2ce 82bd dc45 cf3d
00000140: d09b 4abb bed3 a33d e9f8 a9bd ba1a c53b
00000150: 02cf debb 5c66 26bd b599 ca3d 6b49 193d
00000160: 3fb4 86bc b886 e03d a27c f73c 7ad6 c8bb
00000170: 5368 5c3d ec6a b53d 8e05 c63c 2a4e 15bd
00000180: 5b15 8ebd 7952 f5bc 4c1d 81bd 67b1 5cbd
00000190: 7d4a eabc 0eab ca3d 3bd0 1c3d 9a88 bc3d
000001a0: af4c 703d 9ab6 b33c f4e8 493a 3654 713d
000001b0: df24 aebd 6604 debd 1c20 0dbd cdc1 05bc
000001c0: 0606 6ebc 46b9 07bc 25e6 dfbc 8c27 1abd
000001d0: 6805 893d 11a7 123d d40e e4bd a316 84bd
000001e0: ce36 dcbd a9e9 16ba 56d1 76bc f9de d1bd
000001f0: 3bea cabc aa73 cc3d 8bed 89bc ac4a e13b
00000200: 6152 6b3d dcc4 143d 25ca 3dbd 43e3 593d
00000210: 8d57 e93c 925d 563c 0843 a33c 00e4 003d
00000220: 963a 3cbd 6065 0fbd 120a fa3c 42c8 60bc
00000230: b88a 8f3c 6ce9 e53c 2b97 c5bd 4e4a 7b3d
00000240: e526 8a3d d772 ad3c 3375 f93c 30ec 8dbd
00000250: f4f8 e33d 1b34 53bd 6957 c2bc feb4 003d
00000260: 387b cb3d dd59 a93c 140f 56bb 5f7e 81bd
00000270: 9c0f 43bd c8f1 413d 48ed a5bd 518a 1dbd
00000280: 03b2 c8bd b3b6 b63c 0388 27bd 5292 b63d
00000290: 0c59 5bbc d5c1 d53d 7612 ab3d a29e 9f3d
000002a0: f289 7ebc e094 df3d 894a dabb 6bab 85bd
000002b0: f00e 953c 608a 8ebd 16b5 debd 99dd 6fbd
000002c0: ad00 eabd 3520 243d ec34 d03d f255 d8bd
000002d0: e4b9 8cba 2a13 d2bd aa36 563b 220a c8bd
000002e0: 4517 bcbd 1d1b 963d 4e99 dcbd 2042 083c
000002f0: 6bbc 7d3d 3a9b 3bbd b1bb e13d 405c b2bd
00000300: 9b17 b5bd 6a56 b73d 267b 7fbd 8d72 0a3d
00000310: dd79 4f3c 68eb 8b3c a1c8 e0bb 8ce4 94bd
00000320: a419 2ebc 9428 8fba 5167 d73d 5cc6 87bd
00000330: 3e3d f83c bb25 773d 6817 e4bd 3b76 893d
00000340: 44b7 203d 2286 97bd a3ec 81bb 7e27 adbd
00000350: 2612 523d c8a2 d9bc e740 a23d a731 a23d
00000360: 9887 1bbd 00ec 81bd c922 eebc c1ed 933d
00000370: ac55 c53c 6d18 a5bb e861 d7bc e6ef 9d3d
00000380: 7bf4 3b3d fab8 cdbd ec6f 8b3d 469b 683d
00000390: 8ef7 863d 8565 1abd 5756 c1bd 659d 1cbb
000003a0: 870e c2bd 4ed3 aa3d 6a11 d9bd 50f4 9ebd
000003b0: 14ad b53d 34e4 9ebc dc3a d6bd 2752 7bbd
000003c0: 330d c03d aa58 dcbc c6ca 573d 6f7e 703c
000003d0: 7025 31bd b4a1 d6bd 6728 cc3d dd8e 92bc
000003e0: 2bda bb3c 541f edbc 2a60 873c 767a b93d
000003f0: 3f34 8a3d bac2 a3bb 7378 0abd 09cc 1539

conv1.bias f4 [6]
0.010999715 -0.10288466 0.009207699 0.009843794 -0.041906875 -0.025996836
00000000: 2638 343c 31b5 d2bd e4db 163c dd47 213c
00000010: 8ba6 2bbd 51f7 d4bc

conv2.weight f4 [50, 6, 5, 5]
-0.069080755 0.020074425 0.055689372 -0.047979146 0.048522115 -0.028467508 -0.032844283 0.08032525
-0.034928467 -0.021908548 0.04973742 -0.033874776 0.055252973 -0.008547887 -0.031090666 -0.075965166
-0.06892634 0.06537874 0.020837277 0.01636643 -0.037600752 -0.070333675 -0.075365745 -0.07893545
0.05379393 -0.029816173 -0.05510717 0.039827317 -0.046466816 0.02165566 0.031200962 -0.032636084
0.05897553 0.032643575 0.019832566 0.064202085 -0.078687645 0.039613742 -0.010230388 0.061595533
0.076036006 0.048138767 0.028961778 -0.031806417 0.068191245 -0.078961946 -0.0007075891 -0.039120942
-0.045497466 0.0071652904 -0.035287056 0.03932182 -0.044854466 0.06848496 -0.07362629 -0.00256277
0.0053448533 -0.0226133 -0.03746044 0.02849863 0.034430094 0.07873441 -0.045660857 0.05548134
0.06447062 0.025846723 -0.03568069 0.0692165 0.04705625 -0.02934553 0.00076312583 -0.06947064
0.080976695 0.07560213 -0.078179136 -0.037733443 -0.039268423 0.00792385 -0.019906636 -0.02066586
-0.06831906 -0.03044091 0.027955478 -0.0068737017 0.01683206 0.06625672 0.06721888 -0.001528928
-0.061566085 0.04222589 0.0025983595 0.042515025 -0.0066435463 0.015589765 -0.001372628 -0.07354227
-0.022317635 0.014133934 0.07394367 0.031023161 0.07639535 -0.0811547 0.05277549 0.08024712
0.014519325 -0.041246947 -0.02142043 0.0012189285 0.05170683 0.020838479 0.052538186 0.029905433
0.01942758 0.045635495 0.040358953 0.06084372 0.028785734 -0.0639933 0.07551207 0.0489286
0.0011400427 -0.03489019 -0.04575431 0.014050684 -0.00617865 0.010712252 0.026530584 -0.03550728
-0.069917776 -0.07529683 0.0545169 -0.07072129 -0.070865326 -0.006659232 -0.0122297695 0.071475975
0.020560294 0.034204386 0.04674259 0.029374098 0.0053312373 -0.025295198 0.07782632 -0.08049906
0.07561305 0.073601335 -0.019041574 0.051880237 -0.050244797 -0.043055225 -0.048686247 0.055312935
0.05047048 0.01749514 -0.023773013 -0.05387398 -0.051579013 -0.08066038 0.066020586 0.061090846
0.070168294 -0.054239832 0.06247051 0.048179083 -0.0346398 0.010557977 -0.0020933312 0.04399893
-0.009878326 -0.076412514 0.07892715 0.019167775 -0.060127165 -0.012190464 0.02156838 -0.0664833
0.03307448 0.07710499 -0.04671748 -0.007872102 -0.013599769 0.01658425 0.07467283 0.009836698
-0.05863434 -0.047008526 0.008748785 0.0060183103 -0.03807272 -0.07900386 0.008983009 0.042966597
0.059169352 -0.057376705 0.027119495 -0.028447434 -0.010280691 0.035797372 -0.055745516 0.00080695003
-0.012567738 -0.06835434 0.076942585 -0.027458368 0.02955324 0.0056999535 0.06258922 0.08142562
0.065505624 0.062324148 0.039399132 -0.0487805 -0.007230099 -0.0017365706 -0.0016086315 -0.04804371
0.02896872 0.056017775 0.034947254 -0.003638057 0.018612018 -0.05276017 -0.0047506755 0.06272858
0.02883818 0.020431707 -0.0034514875 -0.008348358 0.04922479 0.05082438 0.06356862 -0.019139709
0.049249146 -0.079046644 -0.043032773 0.079614446 0.05326876 -0.02914646 -0.016861543 -0.040864147
0.0024034716 -0.058992166 -0.02207808 0.04260692 -0.055483382 -0.03613242 0.08008427 0.08084972
0.008710415 -0.039823078 0.044958353 -0.024928523 0.049679276 0.033102736 0.077606834 -0.029011296
00000000: 367a 8dbd 1f73 a43c 8a1a 643d c885 44bd
00000010: 20bf 463d b134 e9bc ba87 06bd 9181 a43d
00000020: 2711 0fbd 8e79 b3bc 77b9 4b3d 47c0 0abd
00000030: f150 623d 700c 0cbc dab1 febc a093 9bbd
00000040: 4129 8dbd 4ae5 853d f0b2 aa3c e412 863c
00000050: 3f03 1abd 1a0b 90bd 5b59 9abd e9a8 a1bd
00000060: 0657 5c3d 0c41 f4bc 0eb8 61bd f821 233d
00000070: fd53 3ebd 3667 b13c 2999 ff3c 6aad 05bd
00000080: 5390 713d 45b5 053d e877 a23c 627c 833d
00000090: fd26 a1bd 0542 223d 5b9d 27bc 994b 7c3d
000000a0: c4b8 9b3d 282d 453d 4041 ed3c 7247 02bd
000000b0: daa7 8b3d cdb6 a1bd 807d 39ba 483d 20bd
000000c0: 8d5b 3abd d0ca ea3b 2989 10bd eb0f 213d
000000d0: 51b9 37bd d841 8c3d 61c9 96bd 25f4 27bb
000000e0: e123 af3b 873f b9bc 1e70 19bd f575 e93c
000000f0: 9206 0d3d 823f a13d e106 3bbd 6740 633d
00000100: 2c09 843d 82bc d33c ea25 12bd 61c1 8d3d
00000110: 0ebe 403d 0966 f0bc 820c 483a 9f46 8ebd
00000120: 1cd7 a53d 4ad5 9a3d 621c a0bd 628e 1abd
00000130: edd7 20bd 09d3 013c 3e13 a3bc 734b a9bc
00000140: ddea 8bbd 375f f9bc e302 e53c ca3c e1bb
00000150: 63e3 893c 9ab1 873d 0daa 893d 5066 c8ba
00000160: b82c 7cbd 0ef5 2c3d 3d49 2a3b 3c24 2e3d
00000170: 1bb2 d9bb 376c 7f3c c1e9 b3ba 549d 96bd
00000180: 79d3 b6bc 0492 673c c76f 973d 4924 fe3c
00000190: 2a75 9c3d 6f34 a6bd 1d2b 583d 9a58 a43d
000001a0: 77e2 6d3c 8ff2 28bd e679 afbc 74c4 9f3a
000001b0: 8aca 533d 75b5 aa3c 4832 573d 3dfc f43c
000001c0: 9726 9f3c 49ec 3a3d 6e4f 253d 4437 793d
000001d0: 0fd0 eb3c eb0e 83bd 12a6 9a3d 5b69 483d
000001e0: 7c6d 953a 04e9 0ebd df68 3bbd d734 663c
000001f0: 4676 cabb 7182 2f3c ab56 d93c 1570 11bd
00000200: 0d31 8fbd 3935 9abd 1d4d 5f3d 53d6 90bd
00000210: d721 91bd b035 dabb 5f5f 48bc ff61 923d
00000220: 106e a83c e619 0c3d 2875 3f3d f3a1 f03c
00000230: a9b1 ae3b e037 cfbc 6863 9f3d b1dc a4bd
00000240: 04db 9a3d 4cbc 963d 13fd 9bbc 5f80 543d
00000250: 7dcd 4dbd ad5a 30bd 3b6b 47bd d18f 623d
00000260: 22ba 4e3d f851 8f3c 9fbf c2bc f6aa 5cbd
00000270: 8444 53bd 4531 a5bd cd35 873d 653a 7a3d
00000280: 65b4 8f3d 962a 5ebd 14e1 7f3d 6e57 453d
00000290: 77e2 0dbd 5dfb 2c3c 4530 09bb 3938 343d
000002a0: b4d8 21bc 2a7e 9cbd 8fa4 a13d bd05 9d3c
000002b0: e747 76bd 83ba 47bc 2cb0 b03c 6528 88bd
000002c0: 1b79 073d 39e9 9d3d d45a 3fbd fdf9 00bc
000002d0: 91d1 5ebc b1db 873c 12ee 983d 1a2a 213c
000002e0: 902a 70bd 038c 40bd 1057 0f3c 3f35 c53b
000002f0: 24f2 1bbd c7cc a1bd 782d 133c befd 2f3d
00000300: 905b 723d d603 6bbd b429 de3c 980a e9bc
00000310: 5870 28bc 44a0 123d 6955 64bd 8089 533a
00000320: eae8 4dbc 5cfd 8bbd 1394 9d3d 5ff0 e0bc
00000330: a319 f23c adc6 ba3b c72e 803d 7ac2 a63d
00000340: d027 863d 9b47 7f3d fc60 213d 10ce 47bd
00000350: 77ea ecbb a49d e3ba b7d8 d2ba 7bc9 44bd
00000360: cf4f ed3c e572 653d da24 0f3d 786c 6ebb
00000370: 3b78 983c 0c1b 58bd 8eab 9bbb d777 803d
00000380: 0c3e ec3c 6560 a73c 5a32 62bb 8dc7 08bc
00000390: ef9f 493d 3a2d 503d 4430 823d e1ca 9cbc
000003a0: 79b9 493d 35e3 a1bd 2243 30bd e60c a33d
000003b0: 5830 5a3d 8fc4 eebc 3821 8abc 2a61 27bd
000003c0: 9083 1d3b c5a1 71bd 17dd b4bc 9884 2e3d
000003d0: 8b42 63bd 97ff 13bd 3903 a43d 8a94 a53d
000003e0: 21b6 0e3c 861d 23bd 4026 383d e736 ccbc
000003f0: 7f7c 4b3d bc96 073d 55f0 9e3d 19a9 edbc

conv2.bias f4 [50]
-0.065025456 -0.027131902 0.020028692 0.00487726 -0.058713965 -0.021033015 -0.032425426 -0.05681867
-0.05034126 -0.011252274 -0.0150556415 0.01216595 -0.037407126 -0.01791677 -0.07886441 0.012907877
-0.016408077 -0.06662358 0.05470805 0.05042969 -0.039014958 0.073544875 0.07398712 -0.0002822193
-0.056787234 0.05143598 0.020995047 -0.054963756 0.06730564 0.077993006 0.028673382 -0.061400797
0.0052322433 0.009860467 0.0072257053 0.08122167 -0.06654026 -0.025853999 0.034505535 -0.045610618
0.061482042 0.059992492 0.070427686 -0.07245992 -0.08146518 -0.06953365 0.010417921 -0.0028000867
-0.05222613 0.08071183
00000000: 112c 85bd b943 debc 3613 a43c 6cd1 9f3b
00000010: 0e7e 70bd 6e4d acbc 86d0 04bd b2ba 68bd
00000020: a332 4ebd 755b 38bc f0ab 76bc b153 473c
00000030: 3738 19bd 31c6 92bc aa83 a1bd 8f7b 533c
00000040: 3b6a 86bc f271 88bd 8c15 603d 5d8f 4e3d
00000050: 26ce 1fbd b29e 963d 8f86 973d d5f6 93b9
00000060: bb99 68bd 89ae 523d cefd ab3c ad21 61bd
00000070: 8ad7 893d ccba 9f3d 71e4 ea3c 677f 7bbd
00000080: 3d73 ab3b cc8d 213c 9cc5 ec3b 8c57 a63d
00000090: 4346 88bd c4cb d3bc ad55 0d3d 33d2 3abd
000000a0: 98d4 7b3d b0ba 753d 643c 903d de65 94bd
000000b0: 37d7 a6bd a967 8ebd edaf 2a3c a981 37bb
000000c0: 11eb 55bd 3e4c a53d

fc1.weight f4 [120, 450]
-0.032161318 -0.03663365 -0.037289176 -0.046737686 -0.028279046 0.021363515 -0.012079505 0.008576406
0.0015767602 0.010344598 -0.04421186 -0.039970525 0.035367537 0.028970411 0.003363574 0.015036588
-0.02645278 0.042356897 -0.025662115 -0.014403761 -0.017693624 -0.0115185045 -0.0015408667 0.02569054
0.03808697 0.019193651 0.022013793 0.0370214 -0.01266665 -0.0011227524 0.0075782184 -0.0068814093
0.025040664 0.03267917 0.036984853 0.045456003 -0.0013020699 -0.014341984 -0.046283614 0.039358787
-0.020416327 -0.0023235965 0.0034264016 -0.04072294 0.04113219 -0.009977542 0.0005098931 0.02774337
-0.0067112325 0.00848105 0.00042552516 -0.031258505 0.046789486 0.0052609206 0.014796459 -0.007927855
-0.04483081 -0.022282595 0.012291949 0.032106508 -0.023748562 -0.0047544036 -0.016218815 -0.043924727
0.011385626 -0.04396666 0.035409253 0.024639688 -0.015726905 0.017465854 0.012001022 -0.025557421
-0.006318277 -0.008588688 -0.03309506 -0.0069414345 -0.030946588 -0.039686706 -0.0032202152 0.031889595
-0.040946864 -0.017783187 -0.021657487 0.039275084 -0.0078890845 0.0065594264 0.019073423 -0.029010808
0.0054294458 -0.0023717873 -0.024771877 -0.026864849 0.033775147 -0.0012531694 -0.04586853 0.025747405
0.018562362 -0.035108913 0.02054224 0.041039977 0.021519106 0.0010132457 -0.02619571 0.02067226
0.042498667 -0.031091943 -0.026577478 0.018120022 -0.031422008 -0.020545594 -0.045995187 0.00022970513
0.010649223 0.036401317 0.026447114 -0.02069409 -0.015119232 -0.022853278 -0.02076339 -0.04549684
0.015643045 0.03627281 -0.033559382 -0.043502174 0.029781284 -0.0024904415 -0.022151446 -0.012469556
-0.004825067 0.008288346 0.024766352 -0.030793471 0.009436775 0.038227167 0.019994888 -0.016962664
0.019592185 0.040968627 0.04300493 0.033688862 -0.018947715 0.017288754 -0.04507844 -0.03963002
0.000112739566 -0.00058921153 0.025598006 -0.03002105 -0.00041138698 0.03754394 0.030441973 0.006667942
0.030527307 -0.004613895 -0.045176685 -0.02474404 0.043097 0.012543358 -0.045653753 -0.0019280836
-0.030962497 0.038587067 -0.035330903 -0.028560469 0.028207004 -0.025472732 0.026909143 0.04063689
0.028050246 0.013534669 0.034653965 0.038348727 0.03808659 0.042286485 -0.0023670692 0.04230506
-0.015891435 -0.027938396 0.0213515 0.010387202 -0.044940792 0.03153479 -0.009002533 -0.019201458
-0.027402943 0.030665087 -0.036018617 0.025312236 0.041362066 -0.0126678785 0.008817877 -0.045650832
0.009119975 0.0069826753 -0.03214603 -0.03401425 0.04387211 -0.037381522 -0.016845409 -0.009955434
0.023184985 -0.012009007 0.041519873 -0.03426906 -0.0052927607 -0.04194604 -0.041931644 0.005442922
0.02957614 0.03740387 -0.038444273 -0.012608523 0.020054214 -0.012016 -0.018514099 -0.031979803
0.0043163644 0.029185938 -0.032436047 -0.0008831646 0.031993285 -0.020106096 0.03292924 0.019367503
-0.046791915 0.013622767 0.0069016307 -0.01780025 -0.046027936 -0.022660632 -0.04666456 -0.03190407
-0.022743758 0.0074126516 0.031815015 0.042896006 0.0023367174 0.017075842 0.020081157 -0.0459401
0.017040689 0.013534694 -0.022859689 -0.00028658647 -0.043647293 -0.03838165 0.026926402 -0.021832537
-0.011695667 0.038736004 0.004381734 0.012306746 0.037452977 -0.036450375 -0.034726385 -0.0035627978
00000000: 96bb 03bd 2b0d 16bd 89bc 18bd 0470 3fbd
00000010: 75a9 e7bc 8a02 af3c 1ee9 45bc 0e84 0c3c
00000020: 4bab ce3a 647c 293c 7f17 35bd 22b8 23bd
00000030: 8ddd 103d 5b53 ed3c 686f 5c3b 055c 763c
00000040: 80b3 d8bc 6d7e 2d3d 5b39 d2bc c1fd 6bbc
00000050: 38f2 90bc 1cb8 3cbc e8f6 c9ba f874 d23c
00000060: 1501 1c3d 013c 9d3c 4556 b43c c0a3 173d
00000070: c887 4fbc 5229 93ba b452 f83b 727d e1bb
00000080: 1422 cd3c 98da 053d 6e7d 173d 1330 3a3d
00000090: 37aa aaba a4fa 6abc e393 3dbd ae36 213d
000000a0: 2440 a7bc 7b47 18bb 7b8d 603b 19cd 26bd
000000b0: 3a7a 283d d878 23bc 59aa 053a 1046 e33c
000000c0: e6e9 dbbb 1af4 0a3c 0519 df39 eb08 00bd
000000d0: 55a6 3f3d cd63 ac3b d96c 723c d5e3 01bc
000000e0: 83a0 37bd fd89 b6bc 2c64 493c 1d82 033d
000000f0: 588c c2bc d4ca 9bbb 52dd 84bc 6aea 33bd
00000100: c78a 3a3c 6216 34bd 4b09 113d 2cd9 c93c
00000110: b6d5 80bc 8d14 8f3c ef9f 443c cc5d d1bc
00000120: 8d09 cfbb 92b7 0cbc b08e 07bd f974 e3bb
00000130: b383 fdbc 878e 22bd 3f0a 53bb aa9e 023d
00000140: e6b7 27bd 0cae 91bc 0b6b b1bc e9de 203d
00000150: 3841 01bc 75f0 d63b de3f 9c3c 13a8 edbc
00000160: 7ee9 b13b fd6f 1bbb 64ee cabc ac13 dcbc
00000170: cf57 0a3d 6341 a4ba a4e0 3bbd 39ec d23c
00000180: 1810 983c 5dce 0fbd 3348 a83c 8919 283d
00000190: d648 b03c e2ce 843a 6398 d6bc df58 a93c
000001a0: 1513 2e3d 88b4 febc 03b9 d9bc 7170 943c
000001b0: 5db4 00bd 3c4f a8bc 7365 3cbd 00dd 7039
000001c0: 147a 2e3c 8c19 153d 9ea7 d83c a786 a9bc
000001d0: a8b6 77bc cc36 bbbc fc17 aabc e55a 3abd
000001e0: d825 803c cc92 143d 9075 09bd 562f 32bd
000001f0: e1f7 f33c ad36 23bb f376 b5bc 1c4d 4cbc
00000200: 981b 9ebb d8cb 073c cee2 ca3c 9742 fcbc
00000210: b49c 1a3c 1794 1c3d 52cc a33c 49f5 8abc
00000220: ca7f a03c b8ce 273d f025 303d 55fd 093d
00000230: 3d38 9bbc 25a1 8d3c 2ca4 38bd 1653 22bd
00000240: 986e ec38 5175 1aba e9b2 d13c b4ee f5bc
00000250: 6daf d7b9 adc7 193d 7261 f93c c07e da3b
00000260: 6714 fa3c 2830 97bb 300b 39bd 03b4 cabc
00000270: 7b86 303d a882 4d3c 6eff 3abd c0b7 fcba
00000280: 10a5 fdbc 790d 1e3d 23b7 10bd a5f7 e9bc
00000290: 6012 e73c 31ac d0bc 9070 dc3c de72 263d
000002a0: a1c9 e53c 84c0 5d3c 51f1 0d3d 8e13 1d3d
000002b0: af00 1c3d 9834 2d3d d520 1bbb 1248 2d3d
000002c0: c12e 82bc 10df e4bc 57e9 ae3c 152f 2a3c
000002d0: d613 38bd a02a 013d 5c7f 13bc 604c 9dbc
000002e0: 237c e0bc 5935 fb3c 4288 13bd 9b5b cf3c
000002f0: 456b 293d ef8c 4fbc db78 103c 5efc 3abd
00000300: f36b 153c edce e43b 8eab 03bd 8752 0bbd
00000310: 3eb3 333d 5e1d 19bd 62ff 89bc 1e1c 23bc
00000320: 70ee bd3c 6dc1 44bc be10 2a3d b75d 0cbd
00000330: e56e adbb 9ccf 2bbd 84c0 2bbd 8a5a b23b
00000340: a949 f23c cd34 193d be77 1dbd fa93 4ebc
00000350: bc48 a43c c2de 44bc e1aa 97bc 41fd 02bd
00000360: 4a70 8d3b 5917 ef3c a9db 04bd 2c84 67ba
00000370: 640b 033d 8ab5 a4bc d0e0 063d 99a8 9e3c
00000380: e1a8 3fbd 0732 5f3c 1327 e23b d4d1 91bc
00000390: ca87 3cbd caa2 b9bc 5623 3fbd d8ad 02bd
000003a0: 1e51 babc d4e5 f23b 7650 023d b9b3 2f3d
000003b0: 9d23 193b a3e2 8b3c 3d81 a43c b02b 3cbd
000003c0: ea98 8b3c 9fc0 5d3c 3e44 bbbc fc40 96b9
000003d0: 81c7 32bd 1436 1dbd c294 dc3c 26da b2bc
000003e0: 2f9f 3fbc a5a9 1e3d a694 8f3b 3ca2 493c
000003f0: 4b68 193d fd4c 15bd 413d 0ebd d47d 69bb

fc1.bias f4 [120]
-0.028345253 0.034006733 0.010399419 0.01054481 0.008764613 -0.026798373 -0.013465397 0.036523342
0.04681197 0.036109984 0.035223857 0.0046361876 -0.03323364 0.0450126 0.021991257 -0.0067177652
-0.017838845 0.027075347 -0.012919688 0.04199542 -0.023441864 0.011813177 -0.00748098 -0.0032772757
0.037339326 -0.040553063 0.0437889 0.013254364 -0.0415968 -0.009118188 0.011264026 -0.03297631
0.004678687 -0.01814319 0.035071075 -0.01712793 -0.026156493 0.046444487 0.043223772 0.009424374
-0.041794587 -0.02412203 0.020265114 -0.0074310037 -0.026524559 -0.045945264 -0.00088184245 0.04643393
0.0039711217 0.0076156226 0.017386012 0.0435817 0.021935778 0.03330445 -0.039453138 -0.00016726692
-0.004219131 0.0061273724 0.041521885 -0.04565152 -0.00060354173 -0.04060408 0.03682014 0.044803903
-0.019011825 0.0109225465 0.030623635 -0.012409264 -0.03463691 -0.0145975575 -0.023999445 -0.041118115
-0.035971187 -0.007476378 -0.03138432 0.006688269 -0.024619436 -0.030638758 -0.03293263 0.031391904
0.04374634 0.025333898 0.02902156 0.03764905 -0.040267404 -0.011449708 -0.006486027 0.0045410898
-0.027169531 0.0022008896 -0.012094405 0.040511806 0.017281413 0.009724218 -0.037369005 -0.021835636
0.02438974 0.017044421 0.017524624 -0.025269773 0.035421573 0.007220052 -0.022998732 0.033235393
0.025365371 0.026492678 0.033683293 -0.017741578 0.008635113 -0.03498009 -0.023852127 -0.03391406
0.027825467 -0.025144884 -0.043161977 -0.030057255 0.013758509 -0.03951893 -0.013826709 0.037763298
00000000: 4e34 e8bc a54a 0b3d 5362 2a3c 24c4 2c3c
00000010: 7499 0f3c 4388 dbbc f89d 5cbc 8099 153d
00000020: e9bd 3f3d 10e8 133d e446 103d 29eb 973b
00000030: ff1f 08bd 225f 383d 0227 b43c b320 dcbb
00000040: c522 92bc 1ecd dd3c 19ad 53bc 6403 2c3d
00000050: 2709 c0bc 0e8c 413c 0223 f5bb 90c7 56bb
00000060: 1ff1 183d f81a 26bd fd5b 333d d528 593c
00000070: 6861 2abd 7464 15bc c08c 383c 2b12 07bd
00000080: ac4f 993b 07a1 94bc b0a6 0f3d df4f 8cbc
00000090: 2446 d6bc 933c 3e3d 690b 313d b168 1a3c
000000a0: cd30 2bbd 909b c5bc 0603 a63c c77f f3bb
000000b0: 084a d9bc 1a31 3cbd 722b 67ba 8131 3e3d
000000c0: 2f20 823b 798c f93b 1c6d 8e3c ba82 323d
000000d0: a9b2 b33c 3f6a 083d 9d99 21bd 5f64 2fb9
000000e0: a340 8abb 20c8 c83b da12 2a3d 17fd 3abd
000000f0: 0037 1eba 7750 26bd b7d0 163d 4c84 373d
00000100: b0be 9bbc 7bf4 323c 6bde fa3c 3a50 4bbc
00000110: 6fdf 0dbd 982a 6fbc 7c9a c4bc 786b 28bd
00000120: 8656 13bd 68fc f4bb d88c 00bd 4429 db3b
00000130: b3ae c9bc 22fe fabc 5ee4 06bd cc94 003d
00000140: 5d2f 333d 0989 cf3c 9fbe ed3c e435 1a3d
00000150: 6fef 24bd 8e97 3bbc bd88 d4bb 6ccd 943b
00000160: a392 debc cd3c 103b 9c27 46bc b5ef 253d
00000170: c091 8d3c 5452 1f3c 3e10 19bd a6e0 b2bc
00000180: fecc c73c bea0 8b3c cd8f 8f3c 8e02 cfbc
00000190: 3616 113d 3096 ec3b d667 bcbc d621 083d
000001a0: 0acb cf3c 2c07 d93c 7ef7 093d c956 91bc
000001b0: 4a7a 0d3c 4847 0fbd 8965 c3bc 78e9 0abd
000001c0: 3cf2 e33c a5fc cdbc 9dca 30bd a23a f6bc
000001d0: 5f6b 613c 9ade 21bd 6c89 62bc b0ad 1a3d

fc2.weight f4 [84, 120]
-0.067404866 -0.08565847 -0.038373265 0.08813505 -0.078022085 -0.04504883 -0.012064017 0.024166966
-0.056136206 -0.032853294 0.064130664 -0.07358731 0.0015443489 -0.052353375 -0.043695293 -0.06466716
-0.0066731283 -0.07482144 -0.0031611763 0.027822593 0.03329569 -0.029951634 0.022221234 -0.021424249
0.060853608 -0.036421593 -0.086310744 0.012612059 0.08959887 0.01961231 0.091059946 -0.048507664
0.07746091 -0.06468835 -0.05595877 0.05707273 0.08256152 -0.023803093 -0.08669001 -0.012920137
-0.08796238 0.027770847 0.06396143 -0.07017695 -0.06345636 0.05404955 -0.05682075 0.028797058
-0.015232436 0.06957395 -0.0118735805 -0.019830843 -0.022242455 -0.0719505 -0.07156359 -0.078894265
0.02035499 0.065503776 0.08970085 0.050004184 0.046953157 0.06405072 0.019144224 0.040528633
-0.06822177 -0.01026943 0.024402274 0.077919655 -0.0022503436 0.041506425 0.021234035 -0.066529505
0.022662744 0.060577393 -0.053459182 -0.02575121 0.0081576565 0.091197565 -0.00073301047 -0.056994878
0.024476044 -0.018432999 -0.0072341613 0.055716295 0.059963156 0.013417681 -0.028686507 0.076922365
0.02245752 0.08952675 0.0020567162 -0.018200917 -0.004210153 -0.03676085 0.026339151 -0.07085905
0.013416854 0.07354155 -0.0029259175 0.07094434 0.0042406917 -0.018193543 0.054180965 -0.04679417
0.002376765 0.06414616 -0.012796302 0.0063246144 -0.011666492 -0.06892394 0.030885749 0.077803254
-0.065763265 -0.034232005 0.043924153 0.037974104 -0.08289998 0.03677971 0.07394946 0.053033784
-0.083636954 -0.058151957 -0.08983285 -0.08946864 -0.08943167 -0.020082803 -0.028720975 -0.08542947
-0.026500816 0.02349051 0.0130241895 0.04334398 -0.028569765 -0.0039462256 -0.026966598 -0.06409144
0.020775085 0.036546554 -0.044768926 -0.04182501 0.063910685 0.01715549 0.023186898 -0.020759366
-0.02077176 0.09104882 -0.009163904 0.027329054 0.012558801 -0.04689189 -0.0793866 0.028562196
-0.061426103 -0.0021566674 -0.03767727 -0.057437576 0.044642255 -0.07442737 -0.0024484226 -0.022888793
-0.026884615 -0.087657444 -0.036662485 -0.027860623 -0.006459353 0.027495936 -0.039421063 -0.090208866
0.08688281 0.002204831 0.06996599 0.09095918 -0.023120714 0.05973261 -0.083110385 -0.042601824
0.030699931 0.08438724 -0.046135243 0.0404028 -0.081537426 -0.017909404 0.032870784 0.04887379
-0.050829355 -0.08115799 0.02851375 -0.061119735 0.02211123 -0.021701694 0.045377612 -0.059338585
-0.05072726 -0.058586504 -0.012670912 0.06388914 -0.05654872 0.07575403 -0.08901534 0.05158746
0.065668516 -0.049111214 -0.03829885 -0.057732765 -0.05318259 0.036379796 0.08669779 0.07980124
-0.065536745 -0.028519936 0.05460343 0.02272547 0.071599916 -0.016909108 0.051413357 -0.07451424
-0.0044482187 -0.07188799 0.025086274 0.07783984 -0.08094892 -0.013757408 -0.0357582 0.06363863
0.03451501 0.045225732 -0.06932974 0.051550377 0.026630394 0.07568668 -0.061962597 0.026172891
0.053740185 0.030457247 0.07230106 0.05905968 0.05365151 -0.0432171 -0.022986898 -0.0021041047
0.030319154 -0.048929937 -0.08579295 0.053165212 0.034881204 0.0006182417 0.0084509775 -0.06617838
-0.04128264 0.022361271 -0.010879099 0.014413916 0.014162727 -0.082051165 0.06612314 -0.060256705
00000000: 900b 8abd b56d afbd 492d 1dbd 2680 b43d
00000010: 0bca 9fbd 1f85 38bd 28a8 45bc cdf9 c53c
00000020: 14ef 65bd 2d91 06bd f056 833d f2b4 96bd
00000030: c06b ca3a 7e70 56bd d6f9 32bd 3770 84bd
00000040: 42aa dabb fc3b 99bd bd2b 4fbb 35ec e33c
00000050: 1061 083d 215d f5bc 4e09 b63c e881 afbc
00000060: a241 793d cf2e 15bd b0c3 b0bd cfa2 4e3c
00000070: 9d7f b73d ffa9 a03c a37d ba3d f9af 46bd
00000080: d3a3 9e3d 537b 84bd 0635 65bd 18c5 693d
00000090: 0416 a93d b4fe c2bc 888a b1bd fbae 53bc
000000a0: 9f25 b4bd b07f e33c 36fe 823d efb8 8fbd
000000b0: 68f5 81bd 1063 5d3d e0bc 68bd cfe7 eb3c
000000c0: 7891 79bc c97c 8e3d 6889 42bc 4b74 a2bc
000000d0: cf35 b6bc c95a 93bd ee8f 92bd 5193 a1bd
000000e0: 82bf a63c d826 863d 14b5 b73d 30d1 4c3d
000000f0: f451 403d 062d 833d 59d4 9c3c 5a01 263d
00000100: dbb7 8bbd 1c41 28bc 47e7 c73c 5794 9f3d
00000110: 807a 13bb a402 2a3d 00f3 ad3c 9f40 88bd
00000120: 38a7 b93c 0020 783d 04f8 5abd 34f4 d2bc
00000130: b1a7 053c cac5 ba3d 8027 40ba 7673 69bd
00000140: fc81 c83c cd00 97bc 8b0c edbb c536 643d
00000150: ed9b 753d d5d5 5b3c f7ff eabc 7989 9d3d
00000160: d5f8 b73c cd59 b73d f9c9 063b 171a 95bc
00000170: 53f5 89bb 8c92 16bd 34c5 d73c 8d1e 91bd
00000180: 5dd2 5b3c f49c 963d c0c0 3fbb 444b 913d
00000190: 80f5 8a3b a00a 95bc dcec 5d3d 3eab 3fbd
000001a0: 80c3 1b3b 105f 833d 95a7 51bc b63e cf3b
000001b0: d024 3fbc ff27 8dbd 1c04 fd3c 5057 9f3d
000001c0: e4ae 86bd dc36 0cbd d0e9 333d bc8a 1b3d
000001d0: 77c7 a9bd 52a6 163d d172 973d f439 593d
000001e0: da49 abbd bf30 6ebd 49fa b7bd 563b b7bd
000001f0: f427 b7bd b184 a4bc 4048 ebbc a5f5 aebd
00000200: 3d18 d9bc 2c6f c03c 6963 553c 7589 313d
00000210: 240b eabc 574f 81bb 0ee9 dcbc 5f42 83bd
00000220: 8330 aa3c d7b1 153d 9f5f 37bd b450 2bbd
00000230: 9be3 823d ac89 8c3c 73f2 bd3c 8c0f aabc
00000240: 8a29 aabc ce77 ba3d 3324 16bc 2ee1 df3c
00000250: 6ec3 4d3c b611 40bd 7195 a2bd 44fb e93c
00000260: f099 7bbd e056 0dbb 7b53 1abd aa43 6bbd
00000270: ccda 363d 616d 98bd b775 20bb 4781 bbbc
00000280: 203d dcbc bf85 b3bd 672b 16bd f63b e4bc
00000290: fba8 d3bb 283f e13c fb77 21bd 6dbf b8bd
000002a0: 9def b13d ed7e 103b 544a 8f3d ce48 ba3d
000002b0: a767 bdbc 2eaa 743d c735 aabd 407f 2ebd
000002c0: 6c7e fb3c 38d3 ac3d 4ff8 3cbd 687d 253d
000002d0: 18fd a6bd beb6 92bc 84a3 063d e22f 483d
000002e0: 7132 50bd 2936 a6bd ab95 e93c b058 7abd
000002f0: 9c22 b53c c0c7 b1bc e0dd 393d 040d 73bd
00000300: 63c7 4fbd 67f8 6fbd a899 4fbc 4fd8 823d
00000310: a19f 67bd ee24 9b3d ad4d b6bd 5f4d 533d
00000320: 377d 863d d728 49bd 41df 1cbd 3179 6cbd
00000330: fdd5 59bd fb02 153d 9c8e b13d d56e a33d
00000340: 2138 86bd a4a2 e9bc d9a7 5f3d c42a ba3c
00000350: faa2 923d f884 8abc d096 523d ec9a 98bd
00000360: 5dc2 91bb 033a 93bd bb81 cd3c 7e6a 9f3d
00000370: 8cc8 a5bd c066 61bc 3177 12bd f854 823d
00000380: 9c5f 0d3d 9e3e 393d c0fc 8dbd 7d26 533d
00000390: fc27 da3c 9e01 9b3d 7ecc 7dbd 8868 d63c
000003a0: ab1e 5c3d 7a81 f93c 9412 943d 90e8 713d
000003b0: b0c1 5b3d 6a04 31bd 054f bcbc 05e5 09bb
000003c0: e05f f83c c26a 48bd 37b4 afbd c4c3 593d
000003d0: 98df 0e3d 8011 223a f875 0a3c 8888 87bd
000003e0: fc17 29bd fc2e b73c 403e 32bc 5828 6c3c
000003f0: c80a 683c 710a a8bd 926b 873d bccf 76bd

fc2.bias f4 [84]
0.07981727 0.06866391 -0.047942165 -0.015447341 -0.038172975 0.08334227 -0.059267625 -0.021757074
-0.07846781 -0.04238252 -0.034492254 0.031289198 -0.04531527 -0.00043793768 -0.01994054 -0.042812936
0.008459307 0.08405526 0.048366144 0.067371644 -0.016821874 -0.0036689376 -0.0058026025 0.06931944
-0.057140708 -0.06786306 -0.06909843 0.049506076 0.024570715 0.03506199 0.011768812 0.014186621
0.03813466 -0.027393155 0.0774007 -0.08903307 0.08628728 0.0073096007 0.07646078 0.04710337
0.021752642 -0.000333108 -0.0012030154 0.015350722 -0.03277203 0.088063195 -0.08999095 -0.013306096
-0.072062254 0.051902886 -0.08139082 -0.024923272 0.09047411 -0.023542061 0.06394291 0.07274805
-0.06110949 -0.08635516 0.00012972805 0.014103153 -0.060746428 -0.013420591 0.018109107 -0.090804726
-0.042589165 0.036597904 0.084559165 -0.08192428 -0.060685135 0.08109594 0.07682776 -0.025569111
-0.04940611 -0.085486494 0.017013595 -0.027346404 -0.014159424 -0.06795939 0.025471019 -0.018062137
0.08220246 0.07294889 -0.06020882 0.042094477
00000000: 3d77 a33d aa9f 8c3d 015f 44bd d816 7dbc
00000010: 445b 1cbd 5aaf aa3d 9cc2 72bd e43b b2bc
00000020: bbb3 a0bd 4b99 2dbd c047 0dbd 1a29 003d
00000030: 819c 39bd 009b e5b9 585a a3bc 9e5c 2fbd
00000040: e898 0a3c 2a25 ac3d 941b 463d 25fa 893d
00000050: 07ce 89bc 8f72 70bb c223 bebb 5af7 8d3d
00000060: 600c 6abd cafb 8abd 7a83 8dbd e2c6 4a3d
00000070: 8648 c93c 299d 0f3d fad1 403c 006f 683c
00000080: 1733 1c3d 9c67 e0bc 4284 9e3d f856 b6bd
00000090: 63b7 b03d 6085 ef3b 7897 9c3d 77ef 403d
000000a0: 9932 b23c 00a5 aeb9 80ae 9dba 9881 7b3c
000000b0: f73b 06bd 7a5a b43d 2d4d b8bd d001 5abc
000000c0: 6095 93bd 1f98 543d 3bb0 a6bd e42b ccbc
000000d0: 7d4a b93d 48db c0bc 80f4 823d eefc 943d
000000e0: f24d 7abd f9da b0bd 9c07 0839 e910 673c
000000f0: 3fd1 78bd 0ae2 5bbc 8d59 943c d4f7 b9bd
00000100: fa71 2ebd afe7 153d 5b2d ad3d ebc7 a7bd
00000110: fa90 78bd a115 a63d df57 9d3d 5076 d1bc
00000120: 105e 4abd 8b13 afbd 1860 8b3c 9105 e0bc
00000130: eefc 67bc 4b2e 8bbd 99a8 d03c 0cf7 93bc
00000140: c359 a83d 3a66 953d 869d 76bd 426b 2c3d

fc3.weight f4 [10, 84]
-0.089478105 -0.07591191 -0.018119812 0.08097293 0.024192415 0.092171215 0.041902073 0.0887583
0.104596056 -0.05721262 0.05964739 0.09901268 0.08975441 -0.018974915 -0.014987618 -0.06693657
0.034595005 0.025257625 -0.0953532 -0.08034448 -0.05085179 0.013983063 -0.035165735 0.060296528
0.10006068 -0.016591385 0.012020871 0.10060277 0.101975255 0.038827024 0.019963972 0.05463005
0.10176674 0.04235045 -0.09867121 0.0394099 -0.052204743 -0.01764603 0.045925237 0.013307385
0.03378462 0.016660593 0.014443636 -0.021177322 -0.031924166 -0.067585975 0.045762174 0.08144391
0.07749041 -0.07484715 -0.022830993 0.014944434 -0.03421951 -0.0070542768 -0.006455004 0.08753636
-0.069220126 0.05748301 0.032120652 -0.054440275 0.03445881 0.09263856 0.0573925 -0.018464714
0.011570521 0.10462161 -0.048667923 0.048919074 0.01847335 0.078090526 -0.01796776 0.048297845
-0.106520675 0.03404639 0.099774845 0.013847455 0.02214598 0.09946387 0.05130837 0.09466181
-0.020634405 0.04549516 -0.018903859 -0.07856856 0.08733032 0.07271873 0.010082297 -0.017751187
0.011862382 -0.047366425 -0.01917325 -0.10459504 -0.059583683 0.036226504 -0.099375546 -0.011717386
-0.09195441 0.011141561 -0.032835588 0.05471889 -0.10796687 -0.085283644 -0.09190074 -0.094773255
0.10855602 -0.06137882 0.008870646 -0.013793765 0.07404917 0.09852751 -0.094947055 0.048179895
0.0878822 -0.08979112 0.056371976 0.017791882 0.088655196 -0.107962 -0.1092746 0.049763255
-0.092185125 -0.0551384 0.103635974 -0.023012724 -0.06912975 -0.07530374 -0.009590119 -0.037007414
-0.066069655 0.07716822 0.056961633 -0.09310158 -0.053667825 0.02444039 0.036293544 -0.052497435
0.09861704 -0.06697841 0.06797082 0.052706093 -0.008231498 0.061511762 0.07546726 0.006830545
-0.08488735 0.037972763 0.06608014 -0.05954275 0.089019544 -0.007193488 0.022427998 -0.06492273
0.0192632 0.004409819 -0.06439606 0.063376434 0.033106126 0.0038090646 0.07102243 -0.0977922
0.051568903 0.055549227 -0.018940048 0.07703256 0.027305193 0.03655657 0.023827083 0.073681414
0.07686528 -0.06606172 -0.08679751 -0.09202877 -0.059931315 0.054836936 0.015507616 0.072271325
-0.059921183 0.041854553 0.05198539 -0.03499841 0.0061620995 -0.04118804 0.08253413 0.045307077
0.03322508 -0.08447657 -0.10243008 -0.04400818 0.0817286 -0.0049036145 -0.020870648 -0.01928763
-0.0696424 -0.09482052 0.048854448 -0.031019814 -0.0067931935 -0.014303423 -0.10635221 0.07360303
-0.08762296 0.048165016 0.038443975 -0.013908744 0.07582026 0.08334722 -0.0010886788 0.073756166
0.026979871 -0.030881964 -0.03278724 -0.09659311 -0.012810603 -0.08459826 0.08981723 0.021658339
-0.039068654 -0.074469924 -0.033127837 -0.06470662 0.04171119 -0.030398361 -0.04419168 -0.045286387
-0.09205102 0.046103872 0.08371761 0.022340931 0.024029724 -0.10591567 0.07313713 -0.030415438
-0.05753506 0.052489944 -0.07595867 0.010911375 0.017050423 0.10005654 -0.026402555 0.058496438
0.047544427 0.009434082 0.08945944 0.00032111257 0.07027774 0.00031947345 -0.04665512 -0.10261435
0.040736474 -0.017483778 -0.035721682 0.08100007 0.02201835 -0.05256822 0.049886204 0.06274813
00000000: 4c40 b7bd b477 9bbd 0070 94bc 23d5 a53d
00000010: 2c2f c63c 43c4 bc3d 82a1 2b3d e9c6 b53d
00000020: 7536 d63d c857 6abd d250 743d 29c7 ca3d
00000030: 29d1 b73d 4871 9bbc a08e 75bc 0a16 89bd
00000040: 7eb3 0d3d 14e9 ce3c 8a48 c3bd a68b a4bd
00000050: f749 50bd 3819 653c f209 10bd 7ef9 763d
00000060: 9dec cc3d a8ea 87bc 30f3 443c d308 ce3d
00000070: 67d8 d03d 1609 1f3d 7c8b a33c c2c3 5f3d
00000080: 156b d03d aa77 2d3d 2214 cabd 466c 213d
00000090: a4d4 55bd 688e 90bc 1a1c 3c3d 3807 5a3c
000000a0: be61 0a3d cc7b 883c 00a5 6c3c 107c adbc
000000b0: eac2 02bd 846a 8abd 1e71 3b3d 11cc a63d
000000c0: 4bb3 9e3d 7649 99bd 1008 bbbc 80d9 743c
000000d0: c229 0cbd 9027 e7bb 8084 d3bb 4346 b33d
000000e0: 48c3 8dbd 4e73 6b3d f290 033d c4fc 5ebd
000000f0: ae24 0d3d 49b9 bd3d 6614 6b3d 5043 97bc
00000100: 4892 3d3c db43 d63d 0458 47bd 5e5f 483d
00000110: 6c55 973c eded 9f3d 2031 93bc f6d3 453d
00000120: 8327 dabd 3a74 0b3d c156 cc3d 70e0 623c
00000130: 7c6b b53c b7b3 cb3d ba28 523d 0dde c13d
00000140: 7c09 a9bc 2259 3a3d 44dc 9abc 8ee8 a0bd
00000150: 3dda b23d 8fed 943d 3830 253c f06a 91bc
00000160: 705a 423c 4c03 42bd 3811 9dbc ed35 d6bd
00000170: 050e 74bd 3e62 143d 6885 cbbd 47fa 3fbc
00000180: 9852 bcbd 188b 363c 9c7e 06bd ea20 603d
00000190: bc1d ddbd 31a9 aebd 7536 bcbd 7b18 c2bd
000001a0: 9e52 de3d 5c68 7bbd 3056 113c 3eff 61bc
000001b0: 17a7 973d cbc8 c93d 9a73 c2bd 4858 453d
000001c0: 95fb b33d 68e4 b7bd 4de6 663d 48c0 913c
000001d0: db90 b53d 2e1b ddbd 5dcb dfbd 8ed4 4b3d
000001e0: 8ecb bcbd ced8 61bd 193f d43d 2e85 bcbc
000001f0: e693 8dbd d938 9abd e01f 1dbc 1695 17bd
00000200: 874f 87bd 5f0a 9e3d 9a50 693d 0bac bebd
00000210: cbd2 5bbd 3637 c83c 8aa8 143d 8d07 57bd
00000220: bbf7 c93d fa2b 89bd 4934 8b3d 58e2 573d
00000230: 68dd 06bc c2f3 7b3d 948e 9a3d c4d2 df3b
00000240: 6bd9 adbd 5489 1b3d 0655 873d 19e3 73bd
00000250: e14f b63d 5ab7 ebbb ecba b73c 35f6 84bd
00000260: dccd 9d3c 3e80 903b 15e2 83bd 81cb 813d
00000270: 4a9a 073d 80a1 793b 3574 913d 4747 c8bd
00000280: ea39 533d 9687 633d 2928 9bbc 3fc3 9d3d
00000290: 24af df3c 58bc 153d 0431 c33c 48e6 963d
000002a0: 8b6b 9d3d 5e4b 87bd e5c2 b1bd 9479 bcbd
000002b0: 8a7a 75bd b29c 603d a813 7e3c fd02 943d
000002c0: ea6f 75bd ae6f 2b3d a2ee 543d 7e5a 0fbd
000002d0: 70eb c93b cab4 28bd a707 a93d ea93 393d
000002e0: 0617 083d 0d02 adbd ddc6 d1bd ec41 34bd
000002f0: 5361 a73d 80ae a0bb ecf8 aabc 1801 9ebc
00000300: ada0 8ebd 4331 c2bd 9a1b 483d 441d febc
00000310: 7099 debb e858 6abc 30cf d9bd 2fbd 963d
00000320: ab73 b3bd ae48 453d 6e77 1d3d 80e1 63bc
00000330: a747 9b3d f3b1 aa3d 00b2 8eba 790d 973d
00000340: e404 dd3c 2cfc fcbc ea4b 06bd 9cd2 c5bd
00000350: 90e3 51bc da41 adbd 19f2 b73d d46c b13c
00000360: 7406 20bd b083 98bd 0eb1 07bd e884 84bd
00000370: 5ad9 2a3d fc05 f9bc 5602 35bd 387e 39bd
00000380: 3f85 bcbd 6ad7 3c3d 2374 ab3d 5404 b73c
00000390: fcd9 c43c 51ea d8bd ebc8 953d cc29 f9bc
000003a0: e2a9 6bbd b2ff 563d 3890 9bbd a0c5 323c
000003b0: 54ad 8b3c 71ea cc3d 2c4a d8bc f699 6f3d
000003c0: f2bd 423d 6891 1a3c 8336 b73d 005b a839
000003d0: c7ed 8f3d 007f a739 7019 3fbd 7927 d2bd
000003e0: 4adb 263d 243a 8fbc e650 12bd 5de3 a53d
000003f0: d45f b43c c651 57bd 7a55 4c3d 1782 803d

fc3.bias f4 [10]
-0.0513894 0.10480883 -0.019957982 -0.044573873 0.041886218 -0.084881075 0.0777422 -0.06896901
0.03364016 0.032746088
00000000: b17d 52bd 03a6 d63d ec7e a3bc 1893 36bd
00000010: e290 2b3d 21d6 adbd 4d37 9f3d a03f 8dbd
00000020: 44ca 093d c320 063d

fc4.weight f4 [3, 10]
0.21375445 -0.15155818 0.1731292 0.22382888 0.31232736 -0.07816668 0.31167096 -0.2288571
-0.23066029 -0.0706784 -0.14286499 0.14687468 0.17747691 -0.027062029 0.27832863 -0.09359893
0.025358895 0.17071843 0.016694907 0.16005261 0.06615731 0.019873908 0.028791755 -0.1443782
0.08176807 -0.061304092 0.29345652 0.21332893 -0.29463866 0.24435727
00000000: 72e2 5a3e 1132 1bbe c848 313e 6633 653e
00000010: 5fe9 9f3e da15 a0bd 5693 9f3e 8459 6abe
00000020: 3632 6cbe d6bf 90bd 334b 12be 5166 163e
00000030: 82bc 353e 30b1 ddbc 1781 8e3e ccb0 bfbd
00000040: 75bd cf3c d0d0 2e3e c2c3 883c d5e4 233e
00000050: 7c7d 873d 9bce a23c b0dc eb3c e1d7 13be
00000060: 0576 a73d 001a 7bbd ef3f 963e e672 5a3e
00000070: e1da 96be cb38 7a3e

fc4.bias f4 [3]
-0.2755582 -0.023462523 0.12328095
00000000: f715 8dbe 7a34 c0bc b97a fc3d
